2023-10-31 16:24:22 - utils.py[line:17] - INFO: set seed 2023 for everything
2023-10-31 16:24:22 - train_trs_blast1000_nfc.py[line:63] - INFO: read pos train seqs: 6851
2023-10-31 16:24:22 - train_trs_blast1000_nfc.py[line:64] - INFO: read neg train seqs: 6851
2023-10-31 16:24:22 - deepb3p.py[line:37] - INFO: the device is cuda:2
2023-10-31 16:24:22 - deepb3p.py[line:38] - INFO: Begining init the deepb3p model with the lr is: 0.0001
2023-10-31 16:24:24 - deepb3p.py[line:55] - INFO: the model:
Classifier(
  (encoder): Encoder(
    (src_emb): Embedding(21, 512)
    (pos_emb): PositionalEncoding(
      (dropout): Dropout(p=0.1, inplace=False)
    )
    (layers): ModuleList(
      (0): EncoderLayer(
        (enc_self_attn): MultiHeadAttention(
          (W_Q): Linear(in_features=512, out_features=64, bias=False)
          (W_K): Linear(in_features=512, out_features=64, bias=False)
          (W_V): Linear(in_features=512, out_features=64, bias=False)
          (fc): Linear(in_features=64, out_features=512, bias=False)
        )
        (pos_ffn): PoswiseFeedForwardNet(
          (fc): Sequential(
            (0): Linear(in_features=512, out_features=16, bias=False)
            (1): ReLU()
            (2): Linear(in_features=16, out_features=512, bias=False)
          )
        )
      )
    )
  )
  (decoder): Decoder(
    (tgt_emb): Embedding(21, 512)
    (pos_emb): PositionalEncoding(
      (dropout): Dropout(p=0.1, inplace=False)
    )
    (layers): ModuleList(
      (0): DecoderLayer(
        (dec_self_attn): MultiHeadAttention(
          (W_Q): Linear(in_features=512, out_features=64, bias=False)
          (W_K): Linear(in_features=512, out_features=64, bias=False)
          (W_V): Linear(in_features=512, out_features=64, bias=False)
          (fc): Linear(in_features=64, out_features=512, bias=False)
        )
        (dec_enc_attn): MultiHeadAttention(
          (W_Q): Linear(in_features=512, out_features=64, bias=False)
          (W_K): Linear(in_features=512, out_features=64, bias=False)
          (W_V): Linear(in_features=512, out_features=64, bias=False)
          (fc): Linear(in_features=64, out_features=512, bias=False)
        )
        (pos_ffn): PoswiseFeedForwardNet(
          (fc): Sequential(
            (0): Linear(in_features=512, out_features=16, bias=False)
            (1): ReLU()
            (2): Linear(in_features=16, out_features=512, bias=False)
          )
        )
      )
    )
  )
  (projection): Sequential(
    (0): Linear(in_features=25600, out_features=256, bias=True)
    (1): BatchNorm1d(256, eps=1e-05, momentum=0.1, affine=True, track_running_stats=True)
    (2): ReLU()
    (3): Linear(in_features=256, out_features=256, bias=True)
    (4): BatchNorm1d(256, eps=1e-05, momentum=0.1, affine=True, track_running_stats=True)
    (5): ReLU()
    (6): Linear(in_features=256, out_features=2, bias=True)
  )
)
2023-10-31 16:24:24 - utils.py[line:17] - INFO: set seed 1 for everything
2023-10-31 16:24:24 - deepb3p.py[line:121] - INFO: begin train with fold 1
2023-10-31 16:24:43 - utils.py[line:40] - INFO: tn=4185, fp=1295, fn=1075, tp=4405
2023-10-31 16:24:43 - utils.py[line:41] - INFO: y_pred: 0=5260 | 1=5700
2023-10-31 16:24:43 - utils.py[line:42] - INFO: y_true: 0=5480 | 1=5480
…
2023-10-31 16:52:32 - deepb3p.py[line:177] - INFO: 5           0.973       0.944       0.896       0.920       0.840       
2023-10-31 16:52:32 - deepb3p.py[line:185] - INFO: Average     0.970       0.932       0.898       0.915       0.830       
2023-10-31 16:52:32 - predict.py[line:46] - INFO: read pos test seqs: 99
2023-10-31 16:52:32 - predict.py[line:47] - INFO: read neg test seqs: 99
2023-10-31 16:52:32 - deepb3p.py[line:37] - INFO: the device is cuda:2
2023-10-31 16:52:32 - deepb3p.py[line:38] - INFO: Begining init the deepb3p model with the lr is: 0.0001
2023-10-31 16:52:32 - deepb3p.py[line:55] - INFO: the model:
Classifier(
  (encoder): Encoder(
    (src_emb): Embedding(21, 512)
    (pos_emb): PositionalEncoding(
      (dropout): Dropout(p=0.1, inplace=False)
    )
    (layers): ModuleList(
      (0): EncoderLayer(
        (enc_self_attn): MultiHeadAttention(
          (W_Q): Linear(in_features=512, out_features=64, bias=False)
          (W_K): Linear(in_features=512, out_features=64, bias=False)
          (W_V): Linear(in_features=512, out_features=64, bias=False)
          (fc): Linear(in_features=64, out_features=512, bias=False)
        )
        (pos_ffn): PoswiseFeedForwardNet(
          (fc): Sequential(
            (0): Linear(in_features=512, out_features=16, bias=False)
            (1): ReLU()
            (2): Linear(in_features=16, out_features=512, bias=False)
          )
        )
      )
    )
  )
  (decoder): Decoder(
    (tgt_emb): Embedding(21, 512)
    (pos_emb): PositionalEncoding(
      (dropout): Dropout(p=0.1, inplace=False)
    )
    (layers): ModuleList(
      (0): DecoderLayer(
        (dec_self_attn): MultiHeadAttention(
          (W_Q): Linear(in_features=512, out_features=64, bias=False)
          (W_K): Linear(in_features=512, out_features=64, bias=False)
          (W_V): Linear(in_features=512, out_features=64, bias=False)
          (fc): Linear(in_features=64, out_features=512, bias=False)
        )
        (dec_enc_attn): MultiHeadAttention(
          (W_Q): Linear(in_features=512, out_features=64, bias=False)
          (W_K): Linear(in_features=512, out_features=64, bias=False)
          (W_V): Linear(in_features=512, out_features=64, bias=False)
          (fc): Linear(in_features=64, out_features=512, bias=False)
        )
        (pos_ffn): PoswiseFeedForwardNet(
          (fc): Sequential(
            (0): Linear(in_features=512, out_features=16, bias=False)
            (1): ReLU()
            (2): Linear(in_features=16, out_features=512, bias=False)
          )
        )
      )
    )
  )
  (projection): Sequential(
    (0): Linear(in_features=25600, out_features=256, bias=True)
    (1): BatchNorm1d(256, eps=1e-05, momentum=0.1, affine=True, track_running_stats=True)
    (2): ReLU()
    (3): Linear(in_features=256, out_features=256, bias=True)
    (4): BatchNorm1d(256, eps=1e-05, momentum=0.1, affine=True, track_running_stats=True)
    (5): ReLU()
    (6): Linear(in_features=256, out_features=2, bias=True)
  )
)
2023-10-31 16:52:32 - deepb3p.py[line:66] - INFO: Loading model from /home/transformer/deepB3P/model/checkpoint/512d_16ff_32k_2h_0.0001lr_0.1p/deepb3p_1.pth
2023-10-31 16:52:32 - deepb3p.py[line:37] - INFO: the device is cuda:2
2023-10-31 16:52:32 - deepb3p.py[line:38] - INFO: Begining init the deepb3p model with the lr is: 0.0001
2023-10-31 16:52:32 - deepb3p.py[line:55] - INFO: the model:
Classifier(
  (encoder): Encoder(
    (src_emb): Embedding(21, 512)
    (pos_emb): PositionalEncoding(
      (dropout): Dropout(p=0.1, inplace=False)
    )
    (layers): ModuleList(
      (0): EncoderLayer(
        (enc_self_attn): MultiHeadAttention(
          (W_Q): Linear(in_features=512, out_features=64, bias=False)
          (W_K): Linear(in_features=512, out_features=64, bias=False)
          (W_V): Linear(in_features=512, out_features=64, bias=False)
          (fc): Linear(in_features=64, out_features=512, bias=False)
        )
        (pos_ffn): PoswiseFeedForwardNet(
          (fc): Sequential(
            (0): Linear(in_features=512, out_features=16, bias=False)
            (1): ReLU()
            (2): Linear(in_features=16, out_features=512, bias=False)
          )
        )
      )
    )
  )
  (decoder): Decoder(
    (tgt_emb): Embedding(21, 512)
    (pos_emb): PositionalEncoding(
      (dropout): Dropout(p=0.1, inplace=False)
    )
    (layers): ModuleList(
      (0): DecoderLayer(
        (dec_self_attn): MultiHeadAttention(
          (W_Q): Linear(in_features=512, out_features=64, bias=False)
          (W_K): Linear(in_features=512, out_features=64, bias=False)
          (W_V): Linear(in_features=512, out_features=64, bias=False)
          (fc): Linear(in_features=64, out_features=512, bias=False)
        )
        (dec_enc_attn): MultiHeadAttention(
          (W_Q): Linear(in_features=512, out_features=64, bias=False)
          (W_K): Linear(in_features=512, out_features=64, bias=False)
          (W_V): Linear(in_features=512, out_features=64, bias=False)
          (fc): Linear(in_features=64, out_features=512, bias=False)
        )
        (pos_ffn): PoswiseFeedForwardNet(
          (fc): Sequential(
            (0): Linear(in_features=512, out_features=16, bias=False)
            (1): ReLU()
            (2): Linear(in_features=16, out_features=512, bias=False)
          )
        )
      )
    )
  )
  (projection): Sequential(
    (0): Linear(in_features=25600, out_features=256, bias=True)
    (1): BatchNorm1d(256, eps=1e-05, momentum=0.1, affine=True, track_running_stats=True)
    (2): ReLU()
    (3): Linear(in_features=256, out_features=256, bias=True)
    (4): BatchNorm1d(256, eps=1e-05, momentum=0.1, affine=True, track_running_stats=True)
    (5): ReLU()
    (6): Linear(in_features=256, out_features=2, bias=True)
  )
)
2023-10-31 16:52:32 - deepb3p.py[line:66] - INFO: Loading model from /home/transformer/deepB3P/model/checkpoint/512d_16ff_32k_2h_0.0001lr_0.1p/deepb3p_2.pth
2023-10-31 16:52:32 - deepb3p.py[line:37] - INFO: the device is cuda:2
2023-10-31 16:52:32 - deepb3p.py[line:38] - INFO: Begining init the deepb3p model with the lr is: 0.0001
2023-10-31 16:52:32 - deepb3p.py[line:55] - INFO: the model:
Classifier(
  (encoder): Encoder(
    (src_emb): Embedding(21, 512)
    (pos_emb): PositionalEncoding(
      (dropout): Dropout(p=0.1, inplace=False)
    )
    (layers): ModuleList(
      (0): EncoderLayer(
        (enc_self_attn): MultiHeadAttention(
          (W_Q): Linear(in_features=512, out_features=64, bias=False)
          (W_K): Linear(in_features=512, out_features=64, bias=False)
          (W_V): Linear(in_features=512, out_features=64, bias=False)
          (fc): Linear(in_features=64, out_features=512, bias=False)
        )
        (pos_ffn): PoswiseFeedForwardNet(
          (fc): Sequential(
            (0): Linear(in_features=512, out_features=16, bias=False)
            (1): ReLU()
            (2): Linear(in_features=16, out_features=512, bias=False)
          )
        )
      )
    )
  )
  (decoder): Decoder(
    (tgt_emb): Embedding(21, 512)
    (pos_emb): PositionalEncoding(
      (dropout): Dropout(p=0.1, inplace=False)
    )
    (layers): ModuleList(
      (0): DecoderLayer(
        (dec_self_attn): MultiHeadAttention(
          (W_Q): Linear(in_features=512, out_features=64, bias=False)
          (W_K): Linear(in_features=512, out_features=64, bias=False)
          (W_V): Linear(in_features=512, out_features=64, bias=False)
          (fc): Linear(in_features=64, out_features=512, bias=False)
        )
        (dec_enc_attn): MultiHeadAttention(
          (W_Q): Linear(in_features=512, out_features=64, bias=False)
          (W_K): Linear(in_features=512, out_features=64, bias=False)
          (W_V): Linear(in_features=512, out_features=64, bias=False)
          (fc): Linear(in_features=64, out_features=512, bias=False)
        )
        (pos_ffn): PoswiseFeedForwardNet(
          (fc): Sequential(
            (0): Linear(in_features=512, out_features=16, bias=False)
            (1): ReLU()
            (2): Linear(in_features=16, out_features=512, bias=False)
          )
        )
      )
    )
  )
  (projection): Sequential(
    (0): Linear(in_features=25600, out_features=256, bias=True)
    (1): BatchNorm1d(256, eps=1e-05, momentum=0.1, affine=True, track_running_stats=True)
    (2): ReLU()
    (3): Linear(in_features=256, out_features=256, bias=True)
    (4): BatchNorm1d(256, eps=1e-05, momentum=0.1, affine=True, track_running_stats=True)
    (5): ReLU()
    (6): Linear(in_features=256, out_features=2, bias=True)
  )
)
2023-10-31 16:52:32 - deepb3p.py[line:66] - INFO: Loading model from /home/transformer/deepB3P/model/checkpoint/512d_16ff_32k_2h_0.0001lr_0.1p/deepb3p_3.pth
2023-10-31 16:52:32 - deepb3p.py[line:37] - INFO: the device is cuda:2
2023-10-31 16:52:32 - deepb3p.py[line:38] - INFO: Begining init the deepb3p model with the lr is: 0.0001
2023-10-31 16:52:32 - deepb3p.py[line:55] - INFO: the model:
Classifier(
  (encoder): Encoder(
    (src_emb): Embedding(21, 512)
    (pos_emb): PositionalEncoding(
      (dropout): Dropout(p=0.1, inplace=False)
    )
    (layers): ModuleList(
      (0): EncoderLayer(
        (enc_self_attn): MultiHeadAttention(
          (W_Q): Linear(in_features=512, out_features=64, bias=False)
          (W_K): Linear(in_features=512, out_features=64, bias=False)
          (W_V): Linear(in_features=512, out_features=64, bias=False)
          (fc): Linear(in_features=64, out_features=512, bias=False)
        )
        (pos_ffn): PoswiseFeedForwardNet(
          (fc): Sequential(
            (0): Linear(in_features=512, out_features=16, bias=False)
            (1): ReLU()
            (2): Linear(in_features=16, out_features=512, bias=False)
          )
        )
      )
    )
  )
  (decoder): Decoder(
    (tgt_emb): Embedding(21, 512)
    (pos_emb): PositionalEncoding(
      (dropout): Dropout(p=0.1, inplace=False)
    )
    (layers): ModuleList(
      (0): DecoderLayer(
        (dec_self_attn): MultiHeadAttention(
          (W_Q): Linear(in_features=512, out_features=64, bias=False)
          (W_K): Linear(in_features=512, out_features=64, bias=False)
          (W_V): Linear(in_features=512, out_features=64, bias=False)
          (fc): Linear(in_features=64, out_features=512, bias=False)
        )
        (dec_enc_attn): MultiHeadAttention(
          (W_Q): Linear(in_features=512, out_features=64, bias=False)
          (W_K): Linear(in_features=512, out_features=64, bias=False)
          (W_V): Linear(in_features=512, out_features=64, bias=False)
          (fc): Linear(in_features=64, out_features=512, bias=False)
        )
        (pos_ffn): PoswiseFeedForwardNet(
          (fc): Sequential(
            (0): Linear(in_features=512, out_features=16, bias=False)
            (1): ReLU()
            (2): Linear(in_features=16, out_features=512, bias=False)
          )
        )
      )
    )
  )
  (projection): Sequential(
    (0): Linear(in_features=25600, out_features=256, bias=True)
    (1): BatchNorm1d(256, eps=1e-05, momentum=0.1, affine=True, track_running_stats=True)
    (2): ReLU()
    (3): Linear(in_features=256, out_features=256, bias=True)
    (4): BatchNorm1d(256, eps=1e-05, momentum=0.1, affine=True, track_running_stats=True)
    (5): ReLU()
    (6): Linear(in_features=256, out_features=2, bias=True)
  )
)
2023-10-31 16:52:32 - deepb3p.py[line:66] - INFO: Loading model from /home/transformer/deepB3P/model/checkpoint/512d_16ff_32k_2h_0.0001lr_0.1p/deepb3p_4.pth
2023-10-31 16:52:32 - deepb3p.py[line:37] - INFO: the device is cuda:2
2023-10-31 16:52:32 - deepb3p.py[line:38] - INFO: Begining init the deepb3p model with the lr is: 0.0001
2023-10-31 16:52:32 - deepb3p.py[line:55] - INFO: the model:
Classifier(
  (encoder): Encoder(
    (src_emb): Embedding(21, 512)
    (pos_emb): PositionalEncoding(
      (dropout): Dropout(p=0.1, inplace=False)
    )
    (layers): ModuleList(
      (0): EncoderLayer(
        (enc_self_attn): MultiHeadAttention(
          (W_Q): Linear(in_features=512, out_features=64, bias=False)
          (W_K): Linear(in_features=512, out_features=64, bias=False)
          (W_V): Linear(in_features=512, out_features=64, bias=False)
          (fc): Linear(in_features=64, out_features=512, bias=False)
        )
        (pos_ffn): PoswiseFeedForwardNet(
          (fc): Sequential(
            (0): Linear(in_features=512, out_features=16, bias=False)
            (1): ReLU()
            (2): Linear(in_features=16, out_features=512, bias=False)
          )
        )
      )
    )
  )
  (decoder): Decoder(
    (tgt_emb): Embedding(21, 512)
    (pos_emb): PositionalEncoding(
      (dropout): Dropout(p=0.1, inplace=False)
    )
    (layers): ModuleList(
      (0): DecoderLayer(
        (dec_self_attn): MultiHeadAttention(
          (W_Q): Linear(in_features=512, out_features=64, bias=False)
          (W_K): Linear(in_features=512, out_features=64, bias=False)
          (W_V): Linear(in_features=512, out_features=64, bias=False)
          (fc): Linear(in_features=64, out_features=512, bias=False)
        )
        (dec_enc_attn): MultiHeadAttention(
          (W_Q): Linear(in_features=512, out_features=64, bias=False)
          (W_K): Linear(in_features=512, out_features=64, bias=False)
          (W_V): Linear(in_features=512, out_features=64, bias=False)
          (fc): Linear(in_features=64, out_features=512, bias=False)
        )
        (pos_ffn): PoswiseFeedForwardNet(
          (fc): Sequential(
            (0): Linear(in_features=512, out_features=16, bias=False)
            (1): ReLU()
            (2): Linear(in_features=16, out_features=512, bias=False)
          )
        )
      )
    )
  )
  (projection): Sequential(
    (0): Linear(in_features=25600, out_features=256, bias=True)
    (1): BatchNorm1d(256, eps=1e-05, momentum=0.1, affine=True, track_running_stats=True)
    (2): ReLU()
    (3): Linear(in_features=256, out_features=256, bias=True)
    (4): BatchNorm1d(256, eps=1e-05, momentum=0.1, affine=True, track_running_stats=True)
    (5): ReLU()
    (6): Linear(in_features=256, out_features=2, bias=True)
  )
)
2023-10-31 16:52:32 - deepb3p.py[line:66] - INFO: Loading model from /home/transformer/deepB3P/model/checkpoint/512d_16ff_32k_2h_0.0001lr_0.1p/deepb3p_5.pth
2023-10-31 16:52:33 - utils.py[line:40] - INFO: tn=84, fp=15, fn=28, tp=71
2023-10-31 16:52:33 - utils.py[line:41] - INFO: y_pred: 0=112 | 1=86
2023-10-31 16:52:33 - utils.py[line:42] - INFO: y_true: 0=99 | 1=99
…
